##################################################
           INITIALIZE TEST ENVIRONMENT            
##################################################
Testing on device: cpu
datadir_test: ../Dataset/testset/LIVE1_gray
qf_candidates: [30]
batchsize_test: 1
base_dir: ./result_test/PlainSSS_1000
ckpt_dir: model_zoo/PlainSSS_1000.pth
model_: CustomNetwork(
  (conv_first): Conv2d(1, 32, kernel_size=(5, 5), stride=(1, 1), padding=(2, 2))
  (block0): CustomBlock(
    (conv1): Conv2d(32, 32, kernel_size=(5, 5), stride=(1, 1), padding=(2, 2), bias=False)
    (conv2): Conv2d(32, 32, kernel_size=(5, 5), stride=(1, 1), padding=(2, 2), bias=False)
    (conv3): Conv2d(32, 32, kernel_size=(5, 5), stride=(1, 1), padding=(2, 2), bias=False)
  )
  (block1): CustomBlock(
    (conv1): Conv2d(32, 32, kernel_size=(5, 5), stride=(1, 1), padding=(2, 2), bias=False)
    (conv2): Conv2d(32, 32, kernel_size=(5, 5), stride=(1, 1), padding=(2, 2), bias=False)
    (conv3): Conv2d(32, 32, kernel_size=(5, 5), stride=(1, 1), padding=(2, 2), bias=False)
  )
  (block2): CustomBlock(
    (conv1): Conv2d(32, 32, kernel_size=(5, 5), stride=(1, 1), padding=(2, 2), bias=False)
    (conv2): Conv2d(32, 32, kernel_size=(5, 5), stride=(1, 1), padding=(2, 2), bias=False)
    (conv3): Conv2d(32, 32, kernel_size=(5, 5), stride=(1, 1), padding=(2, 2), bias=False)
  )
  (block3): CustomBlock(
    (conv1): Conv2d(32, 32, kernel_size=(5, 5), stride=(1, 1), padding=(2, 2), bias=False)
    (conv2): Conv2d(32, 32, kernel_size=(5, 5), stride=(1, 1), padding=(2, 2), bias=False)
    (conv3): Conv2d(32, 32, kernel_size=(5, 5), stride=(1, 1), padding=(2, 2), bias=False)
  )
  (block4): CustomBlock(
    (conv1): Conv2d(32, 32, kernel_size=(5, 5), stride=(1, 1), padding=(2, 2), bias=False)
    (conv2): Conv2d(32, 32, kernel_size=(5, 5), stride=(1, 1), padding=(2, 2), bias=False)
    (conv3): Conv2d(32, 32, kernel_size=(5, 5), stride=(1, 1), padding=(2, 2), bias=False)
  )
  (block5): CustomBlock(
    (conv1): Conv2d(32, 32, kernel_size=(5, 5), stride=(1, 1), padding=(2, 2), bias=False)
    (conv2): Conv2d(32, 32, kernel_size=(5, 5), stride=(1, 1), padding=(2, 2), bias=False)
    (conv3): Conv2d(32, 32, kernel_size=(5, 5), stride=(1, 1), padding=(2, 2), bias=False)
  )
  (conv_last): Conv2d(32, 1, kernel_size=(5, 5), stride=(1, 1), padding=(2, 2))
)
device: cpu


RESULTS : 
DEBLOCKING PERFORMANCE OF bikes.png :	 MSE 0.001133 -> 0.001133 | PSNR 29.457774 -> 29.457556 | PSNR-B 29.457774 -> 29.457556 | SSIM 0.892831 -> 0.892833
DEBLOCKING PERFORMANCE OF building2.png :	 MSE 0.001957 -> 0.001957 | PSNR 27.084996 -> 27.084731 | PSNR-B 27.084996 -> 27.084731 | SSIM 0.886813 -> 0.886814
DEBLOCKING PERFORMANCE OF buildings.png :	 MSE 0.001293 -> 0.001294 | PSNR 28.882473 -> 28.882205 | PSNR-B 28.718842 -> 28.718585 | SSIM 0.887592 -> 0.887591
…
