##################################################
           INITIALIZE TEST ENVIRONMENT            
##################################################
Testing on device: cpu
datadir_test: ../Dataset/testset/LIVE1_gray
qf_candidates: [30]
batchsize_test: 1
base_dir: ./result_test/omega1_1000
ckpt_dir: model_zoo/omega1_1000.pth
model_: CustomNetwork(
  (conv_first): Conv2d(1, 32, kernel_size=(5, 5), stride=(1, 1), padding=(2, 2))
  (block0): CustomBlock(
    (conv1): Conv2d(32, 32, kernel_size=(5, 5), stride=(1, 1), padding=(2, 2), bias=False)
    (conv2): Conv2d(32, 32, kernel_size=(5, 5), stride=(1, 1), padding=(2, 2), bias=False)
    (conv3): Conv2d(32, 32, kernel_size=(5, 5), stride=(1, 1), padding=(2, 2), bias=False)
  )
  (block1): CustomBlock(
    (conv1): Conv2d(32, 32, kernel_size=(5, 5), stride=(1, 1), padding=(2, 2), bias=False)
    (conv2): Conv2d(32, 32, kernel_size=(5, 5), stride=(1, 1), padding=(2, 2), bias=False)
    (conv3): Conv2d(32, 32, kernel_size=(5, 5), stride=(1, 1), padding=(2, 2), bias=False)
  )
  (block2): CustomBlock(
    (conv1): Conv2d(32, 32, kernel_size=(5, 5), stride=(1, 1), padding=(2, 2), bias=False)
    (conv2): Conv2d(32, 32, kernel_size=(5, 5), stride=(1, 1), padding=(2, 2), bias=False)
    (conv3): Conv2d(32, 32, kernel_size=(5, 5), stride=(1, 1), padding=(2, 2), bias=False)
  )
  (block3): CustomBlock(
    (conv1): Conv2d(32, 32, kernel_size=(5, 5), stride=(1, 1), padding=(2, 2), bias=False)
    (conv2): Conv2d(32, 32, kernel_size=(5, 5), stride=(1, 1), padding=(2, 2), bias=False)
    (conv3): Conv2d(32, 32, kernel_size=(5, 5), stride=(1, 1), padding=(2, 2), bias=False)
  )
  (block4): CustomBlock(
    (conv1): Conv2d(32, 32, kernel_size=(5, 5), stride=(1, 1), padding=(2, 2), bias=False)
    (conv2): Conv2d(32, 32, kernel_size=(5, 5), stride=(1, 1), padding=(2, 2), bias=False)
    (conv3): Conv2d(32, 32, kernel_size=(5, 5), stride=(1, 1), padding=(2, 2), bias=False)
  )
  (block5): SirenBlock(
    (conv1): Conv2d(32, 32, kernel_size=(5, 5), stride=(1, 1), padding=(2, 2), bias=False)
    (conv2): Conv2d(32, 32, kernel_size=(5, 5), stride=(1, 1), padding=(2, 2), bias=False)
    (conv3): Conv2d(32, 1, kernel_size=(5, 5), stride=(1, 1), padding=(2, 2), bias=False)
  )
)
device: cpu


RESULTS : 
DEBLOCKING PERFORMANCE OF bikes.png :	 MSE -> 0.000713 | PSNR -> 31.471240 | PSNR-B -> 31.471241 | SSIM -> 0.921927
DEBLOCKING PERFORMANCE OF building2.png :	 MSE -> 0.001450 | PSNR -> 28.386932 | PSNR-B -> 28.386932 | SSIM -> 0.908495
DEBLOCKING PERFORMANCE OF buildings.png :	 MSE -> 0.000913 | PSNR -> 30.396595 | PSNR-B -> 30.166489 | SSIM -> 0.906954
…
